assn3/sample_submit/submit/model.pth (torch_old, 353693 bytes, 10 tensors)

conv1.weight f4 [13, 1, 5, 5]
0.2054869 0.20929027 -0.10660088 -0.28018954 -0.121402 -0.033708967 0.01886564 -0.08265806
-0.1293969 0.03600172 -0.11961676 0.21589276 0.005939577 -0.20021899 -0.24134344 0.1456799
0.022815248 0.043392047 -0.20296115 0.04948402 0.15440656 0.1233249 0.072844185 -0.1295585
-0.022502866 -0.1070151 -0.12515485 -0.06676281 -0.05739505 -0.07598532 0.08798765 0.02061083
0.13319236 -0.08972959 -0.16581225 -0.04034521 0.3250437 0.22250257 0.18147965 0.11227877
0.035109844 0.43240744 0.15568426 -0.108501166 0.07076929 0.0418006 0.18857513 0.020344183
-0.08761028 -0.030003797 -0.11012075 -0.24404794 0.15356027 0.27780867 0.034024894 -0.13842398
0.0534344 0.21143515 -0.21589571 0.031511024 -0.1942257 -0.2039566 -0.11633028 -0.022237163
0.032398522 -0.284026 0.099026866 0.036955234 -0.14393657 -0.25481796 -0.09909282 0.13259006
0.077079624 -0.014848751 -0.01561176 -0.323523 -0.14024046 0.28014958 -0.0039152866 0.26084918
0.007816404 -0.31219822 0.06912418 0.035155084 0.1699002 -0.17724162 -0.29821312 -0.012202913
-0.10163155 0.23271264 -0.1945094 -0.25086665 -0.05936709 -0.029496463 -0.058981013 -0.02387617
-0.039495677 -0.1781093 -0.28099716 0.12091818 0.3871726 0.06051039 0.09979968 0.09522268
-0.038369298 0.2913979 0.04957224 0.105174854 -0.16721883 -0.14974436 0.00915641 0.07057228
-0.31879234 -0.16788523 -0.21249215 -0.087542325 -0.026783403 -0.29158595 -0.07211858 -0.19177832
-0.1784432 -0.024576308 0.039863218 -0.29019937 -0.23150136 -0.1497649 0.12179853 -0.1308752
0.20706809 0.030173287 -0.09861006 -0.14864424 0.26522797 0.14221479 0.16320969 -0.018169774
0.12387427 -0.05296465 0.29391357 0.10063329 0.103418395 0.050045185 -0.13930401 0.19194862
0.24696039 -0.086704 -0.17710789 -0.1241406 0.038274746 -0.07744842 0.11351959 -0.19888909
-0.15467715 0.09381498 0.10201811 0.076641925 -0.2246871 0.0055067986 -0.26653793 -0.087135546
-0.12113414 -0.04600629 -0.025269788 -0.046015434 0.21387915 0.24659774 -0.073918 0.08537194
-0.2067881 0.1001 0.13345067 -0.19326736 -0.057754513 -0.060324155 -0.07383399 0.20912766
0.31041354 -0.05855839 0.14557126 0.07567669 0.037566464 0.28564236 0.20905611 0.05002205
-0.25456762 -0.15190049 0.2635141 -0.012124743 -0.20487599 0.005146994 0.034889735 0.15792641
-0.22028649 -0.30115017 -0.13403028 -0.06576254 0.035233915 -0.29418507 -0.092075236 -0.23419318
-0.14644647 0.2780338 0.31158057 0.12965098 0.27838862 -0.062291183 0.17577894 0.02611031
-0.23545271 -0.20276563 -0.15930758 0.043722484 -0.20127797 -0.19513793 -0.17508702 -0.10096963
-0.016906783 -0.19015254 -0.15561561 0.054762848 -0.19030945 0.11788828 -0.07967588 0.009454625
-0.18735488 0.21029411 0.3162285 0.18002327 0.042029187 -0.11756992 0.031692453 -0.1475648
-0.20815313 0.013548352 -0.048283365 -0.0146593675 0.18314527 -0.0835274 -0.10895915 -0.17597754
0.0019772379 -0.11871089 -0.18295938 -0.23834246 -0.11700774 0.011460352 -0.009512058 -0.05069304
-0.18847083 -0.085398324 -0.21940953 -0.06353501 -0.12853514 -0.12755188 -0.10359708 -0.054687586
00000000: 286b 523e 3050 563e 9051 dabd 0175 8fbe
00000010: 9da1 f8bd 6a12 0abd 1d8c 9a3c a148 a9bd
00000020: 9f80 04be 8a76 133d a2f9 f4bd fe12 5d3e
00000030: c8a0 c23b 3506 4dbe bc22 77be 1d2d 153e
00000040: 0be7 ba3c dcbb 313d 0cd5 4fbe c1af 4a3d
00000050: c11c 1e3e c491 fc3d 552f 953d fcaa 04be
00000060: ee57 b8bc bc2a dbbd 9828 00be f1ba 88bd
00000070: 1217 6bbd 319e 9bbd de32 b43d 0bd8 a83c
00000080: 9463 083e 26c4 b7bd b0ca 29be 0541 25bd
00000090: 216c a63e b7d7 633e cdd5 393e 69f2 e53d
000000a0: 57cf 0f3d 8264 dd3e b26b 1f3e dc35 debd
000000b0: 7def 903d 1b37 2b3d d719 413e d8a8 a63c
000000c0: 056d b3bd 86ca f5bc fd86 e1bd b4e7 79be
000000d0: e73e 1d3e f03c 8e3e b05d 0b3d 04bf 0dbe
000000e0: 08de 5a3d 7582 583e c413 5dbe b411 013d
000000f0: 1ae3 46be 00da 50be 923e eebd b62a b6bc
00000100: 50b4 043d db6b 91be 99ce ca3d 5f5e 173d
00000110: 1c64 13be 8077 82be 2df1 cabd b0c5 073e
00000120: ecdb 9d3d 2d48 73bc 78c8 7fbc cfa4 a5be
00000130: 329b 0fbe c46f 8f3e ce4b 80bb 068e 853e
00000140: 6010 003c 72d8 9fbe fa90 8d3d c7fe 0f3d
00000150: 51fa 2d3e d47e 35be 64af 98be baee 47bc
00000160: 3424 d0bd 394c 6e3e 792d 47be 9871 80be
00000170: e82a 73bd 91a2 f1bc 1396 71bd f597 c3bc
00000180: 38c6 21bd 4962 36be dcde 8fbe f3a3 f73d
00000190: 7d3b c63e bed9 773d c663 cc3d 1c04 c33d
000001a0: 2029 1dbd 1b32 953e 430c 4b3d ea65 d73d
000001b0: 6a3b 2bbe 9656 19be c404 163c 3388 903d
000001c0: c038 a3be 1bea 2bbe 8b97 59be 6449 b3bd
000001d0: de68 dbbc c14a 95be e8b2 93bd 8961 44be
000001e0: d0b9 36be 4154 c9bc 9d47 233d 0395 94be
000001f0: b10e 6dbe f85b 19be 8271 f93d 2604 06be
00000200: a809 543e f82d f73c 12f4 c9bd 3236 18be
00000210: f6cb 873e c1a0 113e 7120 273e c7d8 94bc
00000220: cbb1 fd3d 76f1 58bd d77b 963e d418 ce3d
00000230: 06cd d33d 2efc 4c3d b6a5 0ebe 2e8e 443e
00000240: 2fe3 7c3e de91 b1bd c55b 35be 6d3d febd
00000250: fbc5 1c3d 479d 9ebd f57c e83d 95a9 4bbe
00000260: b063 1ebe 1122 c03d dfee d03d 71f6 9c3d
00000270: 6014 66be 6072 b43b a977 88be 1f74 b2bd
00000280: 2d15 f8bd 1771 3cbd 9602 cfbc ae7a 3cbd
00000290: 2303 5b3e 1e84 7c3e 5262 97bd 7cd7 ae3d
000002a0: 42c0 53be 3b01 cd3d 4ba7 083e e1e7 45be
000002b0: ff8f 6cbd 7616 77bd 4636 97bd 9025 563e
000002c0: 86ee 9e3e ecda 6fbd a210 153e 61fc 9a3d
000002d0: 4bdf 193d b73f 923e ce12 563e ece3 4c3d
000002e0: b056 82be cd8b 1bbe 52eb 863e dca6 46bc
000002f0: 03cb 51be 1da8 a83b 8ae8 0e3d 76b7 213e
00000300: c892 61be 5b30 9abe 3c3f 09be 83ae 86bd
00000310: 7051 103d 6d9f 96be f191 bcbd 56d0 6fbe
00000320: 10f6 15be 725a 8e3e 7d87 9f3e 3ac3 043e
00000330: f488 8e3e 0a25 7fbd 65ff 333e 4ae5 d53c
00000340: 841a 71be cba1 4fbe 8721 23be 5916 333d
00000350: d01b 4ebe 3dd2 47be 034a 33be 2ac9 cebd
00000360: 1880 8abc 59b7 42be b359 1fbe 024f 603d
00000370: 7be0 42be 696f f13d 1c2d a3bd 92e7 1a3c
00000380: f5d9 3fbe 5757 573e b4e8 a13e 0558 383e
00000390: cc26 2c3d 80c8 f0bd f2cf 013d 3a1b 17be
000003a0: 1826 55be e8f9 5d3c c7c4 45bd d82d 70bc
000003b0: 6f8a 3b3e 6a10 abbd fa25 dfbd 7533 34be
000003c0: 8c94 013b b21e f3bd b459 3bbe 0c10 74be
000003d0: c1a1 efbd 33c4 3b3c 77d8 1bbc 81a3 4fbd
000003e0: 7ffe 40be 51e5 aebd e4ac 60be a51e 82bd
000003f0: b79e 03be f69c 02be b52a d4bd 1700 60bd

conv1.bias f4 [13]
-0.10659061 -0.3966421 0.13800254 -0.03627531 0.10171913 -0.26632783 0.028148858 -0.26570627
-0.06846412 0.0046932544 0.04398399 -0.24064414 0.11447641
00000000: 2e4c dabd ac14 cbbe 8a50 0d3e 6b95 14bd
00000010: 1f52 d03d 1f5c 88be 6f98 e63c a70a 88be
00000020: eb36 8cbd dfc9 993b 8e28 343d 6b6b 76be
00000030: 9c72 ea3d

conv3.weight f4 [26, 13, 3, 3]
0.05510474 0.032235183 -0.034079093 0.05640821 0.06609126 -0.010821524 -0.029527253 0.10134455
0.0024314837 0.04760902 0.06349321 -0.015090504 0.022757968 0.022441272 -0.15763913 -0.06528786
-0.07917722 -0.035947543 -0.0013699863 -0.13183726 -0.107173815 -0.06427108 -0.085654244 -0.03618981
0.02335589 0.02939887 -0.01764216 -0.017423602 -0.13295653 -0.007710721 0.050945688 0.0332504
-0.06368167 0.019135974 -0.090119526 -0.020054871 -0.030171536 0.16943578 -0.046000823 0.041325383
0.033702467 0.10298041 0.12055256 -0.012373745 0.10776601 0.12549315 -0.11254831 -0.016828967
-0.036390465 -0.11203351 -0.11071197 0.02708907 0.017218554 -0.12062737 0.0030906324 -0.019711211
0.09012407 -0.08324271 -0.06850316 0.058970843 0.023094662 -0.077645496 0.06236016 -0.042614646
0.15699266 -0.016006539 0.04277762 0.120800704 -0.08001344 0.014724584 0.0437531 -0.0974926
-0.05367736 -0.0420442 0.06460812 -0.09084514 -0.06255863 -0.07363306 0.04784692 -0.005424697
-0.0010474694 -0.11040621 0.077167444 0.05608564 -0.027687347 0.1395739 -0.07332813 0.07032376
0.011893083 -0.08103328 -0.09987767 0.07284893 0.07098106 0.004510106 -0.038676076 -0.051611956
-0.03103538 -0.081957094 -0.03407309 0.021976715 -0.06977837 -0.07773551 -0.0407257 0.008545788
0.0021864967 -0.0058274386 0.03228941 -0.07203587 -0.07851821 0.07598926 0.046283606 -0.05218191
0.10643294 0.080368824 -0.04164567 0.06846208 0.0016230225 -0.024096673 -0.019567834 0.083307415
-0.0015841132 0.077699795 -0.011950274 -0.001681841 -0.05728546 -0.036648728 0.0012216073 0.13790105
0.005557712 0.029502068 0.00049495907 -0.22018404 -0.017110521 -0.044788375 -0.14016418 0.052571125
-0.071729146 -0.09672395 -0.091293156 0.02435997 0.055044636 -0.084368445 -0.0507838 0.023586798
0.02961483 -0.044974666 0.04505437 -0.018240217 -0.09920846 0.041561883 0.069000795 -0.07059813
0.009987527 -0.09849278 -0.0775893 0.1103663 0.05834721 0.119206436 0.0014780717 0.092537336
0.13807723 -0.07711064 0.024697367 -0.086111985 -0.10136413 -0.009999221 -0.020605974 -0.07140182
0.055263825 -0.10439892 -0.11651975 0.06561243 0.029419048 -0.023996783 -0.089867406 0.058670186
0.040229984 -0.022334136 -0.045415774 -0.0027425818 -0.07120606 0.10774279 -0.008205481 0.078453235
0.055041034 -0.033751722 0.15115643 0.015289849 -0.10019684 -0.08718847 -0.055767536 -0.007343081
-0.034098767 0.06881557 -0.09399396 -0.04593014 0.13017233 0.015147358 -0.0067104455 0.0051852553
-0.039465893 0.11594888 0.022756316 -0.038555577 0.09478374 0.1297752 0.070883565 0.030899785
0.019161792 0.019722832 -0.085699886 -0.0016619595 -0.08505355 -0.062298965 -0.053024177 -0.08630479
0.027947064 0.018450042 -0.03502079 0.062171794 0.05448536 -0.07109963 -0.024922147 -0.07166464
-0.030056052 -0.083160065 -0.0077038817 -0.012764526 -0.059537955 -0.03107894 0.029357806 0.07691198
0.0060523343 -0.004928474 -0.038075175 -0.07971909 -0.08621401 -0.09249055 0.015755547 -0.00059093226
-0.07502176 -0.040277958 -0.07154734 0.06897485 -0.027527511 -0.052852303 -0.06404215 -0.059445877
0.018711727 -0.02241442 0.06733969 -0.11888891 0.059973944 -0.003614517 0.0433838 0.046048507
00000000: 82b5 613d 0a09 043d 8596 0bbd 4c0c 673d
00000010: db5a 873d c34c 31bc 23e3 f1bc bb8d cf3d
00000020: 8759 1f3b ad01 433d ba08 823d 293e 77bc
00000030: eb6e ba3c c2d6 b73c 276c 21be a4b5 85bd
00000040: ab27 a2bd bb3d 13bd 1d91 b3ba 5900 07be
00000050: f27d dbbd 8ea0 83bd 7e6b afbd c43b 14bd
00000060: da54 bf3c e6d5 f03c 4b86 90bc f1bb 8ebc
00000070: c225 08be 37aa fcbb 6dac 503d 9231 083d
00000080: 896b 82bd 0cc3 9c3c 9690 b8bd 1d4a a4bc
00000090: 4c2a f7bc 9380 2d3e 5c6b 3cbd ce44 293d
000000a0: 990b 0a3d 65e7 d23d 43e4 f63d 40bb 4abc
000000b0: 6db4 dc3d 4781 003e ba7f e6bd e7dc 89bc
000000c0: 2b0e 15bd d371 e5bd f5bc e2bd e6e9 dd3c
000000d0: ed0d 8d3c 7c0b f7bd 358c 4a3b 6879 a1bc
000000e0: f892 b83d 277b aabd 624b 8cbd 698b 713d
000000f0: 0431 bd3c 9a04 9fbd 5e6d 7f3d b28c 2ebd
00000100: afc2 203e 2520 83bc 9637 2f3d 5c66 f73d
00000110: 16de a3bd 623f 713c 7336 333d 33aa c7bd
00000120: cbdc 5bbd 8a36 2cbd 4351 843d 040d babd
00000130: bd1e 80bd eecc 96bd 22fb 433d a8c1 b1bb
00000140: 3e4b 89ba a71c e2bd f709 9e3d 0eba 653d
00000150: 93d0 e2bc 76ec 0e3e 0f2d 96bd e705 903d
00000160: 35db 423c c7f4 a5bd aa8c ccbd d231 953d
00000170: 855e 913d 83c9 933b ce6a 1ebd 0f67 53bd
00000180: e93d febc 1fd9 a7bd 3990 0bbd 8308 b43c
00000190: f6e7 8ebd cc33 9fbd fecf 26bd a203 0c3c
000001a0: 544b 0f3b 19f4 bebb e641 043d 8b87 93bd
000001b0: 28ce a0bd 42a0 9b3d e193 3d3d b3bc 55bd
000001c0: 83f9 d93d 6998 a43d a694 2abd d935 8c3d
000001d0: 99bb d43a 6366 c5bc b94c a0bc 149d aa3d
000001e0: 05a2 cfba 1221 9f3d 15cb 43bc 3871 dcba
000001f0: 29a4 6abd fa1c 16bd 571e a03a ef35 0d3e
00000200: 781d b63b 52ae f13c 24c0 013a ed77 61be
00000210: 5d2b 8cbc 0474 37bd 3387 0fbe d254 573d
00000220: bbe6 92bd 3517 c6bd e8f7 babd 8f8e c73c
00000230: 7c76 613d 5dc9 acbd ad02 50bd 1a39 c13c
00000240: cd9a f23c 5b37 38bd ee8a 383d 826c 95bc
00000250: ce2d cbbd cb3c 2a3d 4a50 8d3d c195 90bd
00000260: b9a2 233c 95b6 c9bd 24e7 9ebd ba07 e23d
00000270: 7cfd 6e3d 8122 f43d dbbb c13a 3784 bd3d
00000280: 1e64 0d3e 2fec 9dbd 2252 ca3c 7b5b b0bd
00000290: ff97 cfbd c6d3 23bc dccd a8bc 1e3b 92bd
000002a0: 525c 623d 1acf d5bd e8a1 eebd cf5f 863d
000002b0: 3700 f13c e794 c4bc 670c b8bd 2650 703d
000002c0: 32c8 243d 14f6 b6bc e405 3abd e3bc 33bb
000002d0: 7cd4 91bd 40a8 dc3d 4870 06bc 17ac a03d
000002e0: b572 613d 3f3f 0abd c0c8 1a3e 4682 7a3c
000002f0: 0034 cdbd de8f b2bd 806c 64bd 3a9e f0bb
00000300: 26ab 0bbd 2def 8c3d e87f c0bd 3e21 3cbd
00000310: e54b 053e a02c 783c 4ce3 dbbb 13e9 a93b
00000320: fda6 21bd 9b76 ed3d 746b ba3c 74ec 1dbd
00000330: fa1d c23d cae3 043e 672b 913d 8c21 fd3c
00000340: 31f9 9c3c c791 a13c 6c83 afbd 1bd6 d9ba
00000350: 8e30 aebd 332d 7fbd e12f 59bd 91c0 b0bd
00000360: 3ef1 e43c 8b24 973c f671 0fbd daa7 7e3d
00000370: 0a2c 5f3d af9c 91bd 8829 ccbc e9c4 92bd
00000380: 1c38 f6bc d34f aabd d870 fcbb 4d22 51bc
00000390: 12de 73bd 4399 febc c87f f03c 0784 9d3d
000003a0: a952 c63b 097f a1bb b7f4 1bbd c343 a3bd
000003b0: f990 b0bd af6b bdbd c711 813c cbe8 1aba
000003c0: 02a5 99bd 80fa 24bd 6987 92bd b042 8d3d
000003d0: 6081 e1bc a87b 58bd 8828 83bd 857d 73bd
000003e0: 5649 993c 729e b7bc 64e9 893d 077c f3bd
000003f0: 3da7 753d 88e1 6cbb 36b3 313d 5c9d 3c3d

conv3.bias f4 [26]
-0.076950535 -0.030843176 0.010245294 -0.0726549 -0.07096865 0.0982816 0.011288776 -0.02626986
-0.06287149 -0.049226653 -0.09951127 0.10291989 0.03839735 0.05535868 0.078514315 -0.0066969614
0.050418194 -0.041616756 -0.06513854 0.015343891 -0.03142884 -0.062093787 -0.050025437 -0.091275185
0.08343532 -0.00799952
00000000: 3e98 9dbd d4aa fcbc e1db 273c 18cc 94bd
00000010: 0358 91bd dd47 c93d 8ff4 383c e433 d7bc
00000020: c5c2 80bd e3a1 49bd 91cc cbbd aac7 d23d
00000030: 8a46 1d3d c9bf 623d 1dcc a03d 2f72 dbbb
00000040: 4f83 4e3d 5576 2abd 5b67 85bd f264 7b3c
00000050: 87bb 00bd 0e56 7ebd 79e7 4cbd 7cee babd
00000060: 23e0 aa3d 6b10 03bc

conv2.weight f4 [26, 26, 5, 5]
-0.001169354 0.017189085 -0.035316724 0.012129906 0.022654379 0.06574374 -0.04617543 0.04399725
0.050566718 -0.03019283 0.093863994 -0.022613255 -0.00616383 -0.096816815 -0.01605499 -0.013464315
-0.044469245 -0.043373935 -0.030032223 0.052307375 -0.14019959 -0.028498992 0.0070704976 0.07141644
0.11029317 0.05537104 -0.02455277 -0.050372504 0.017864369 0.12913539 0.040159687 -0.061704338
0.021148838 0.05289489 0.005916451 -0.01085839 -0.056733105 0.03351838 -0.012284769 -0.051323593
0.0050123436 -0.09144716 -0.049046308 -0.044893716 0.05215251 -0.13261874 -0.054288737 -0.0074122306
0.013406683 0.13433805 -0.011128047 -0.012652693 0.006184537 -0.00506032 0.028823862 0.0032609364
-0.037253737 -0.0061393585 -0.030495381 0.020443045 -0.02938416 0.027927928 -0.019559762 -0.007200663
0.033989783 0.0022030377 -0.015580478 -0.027365325 0.009273685 -0.026107304 0.0013793757 0.029368525
-0.0368649 -0.00056924275 -0.016581722 -0.05814178 -0.033180706 0.017962417 0.047557756 0.011214869
-0.09511093 -0.06563559 -0.023553548 0.0240295 0.0053104637 -0.034899734 0.008440682 -0.0392946
-0.057294287 0.0034175648 -0.045581155 -0.041544642 -0.12489768 -0.07159221 -0.082411334 0.019275427
0.014754892 -0.033948455 -0.0398816 -0.029927112 -0.020756213 -0.02123565 -0.06568554 0.052481763
-0.020365253 0.037221882 -0.028783275 -0.07559509 0.022677682 0.018201532 0.0023701866 -0.052384447
-0.035040155 0.03189996 0.07882276 -0.16724014 -0.07386292 -0.12849812 -0.02481059 0.012699917
-0.19016768 -0.054492664 -0.033285987 -0.06334513 -0.03251918 0.10665044 0.02835088 -0.12496761
0.0390277 -0.08815546 0.13238962 -0.14029284 -0.01952474 0.045946483 0.023142558 0.091116294
-0.05877732 -0.09253033 0.024609396 0.053859815 -0.07890495 0.015591219 -0.124522634 -0.054543894
0.09560314 -0.15453397 -0.036875814 -0.05538596 -0.0752589 -0.01889322 -0.0002748475 -0.032012522
-0.00095390156 0.0016765215 -0.0352885 0.011782949 0.022140823 -0.004496265 -0.020725861 0.0039726524
0.010020242 0.018266508 -0.026668902 0.031166505 0.020151386 -0.029448513 0.016709017 -0.016245704
-0.031240163 0.04340887 0.023385232 0.017700726 0.0021383415 0.030116055 -0.024542145 0.032154173
-0.013317349 -0.065285675 -0.02502702 0.04641476 0.07837792 0.088795185 -0.037822805 0.026582282
0.05632153 0.12720478 0.022405064 -0.06763725 -0.041426457 -0.014417543 -0.016065147 0.0030233972
0.024205793 -0.06690899 0.056590166 -0.10039083 -0.1413145 -0.020947764 -0.0511982 0.017588267
-0.04113864 -0.018015796 -0.022848668 0.01072734 0.0120210545 0.036771268 0.013268546 -0.018401323
0.02741619 0.048289333 0.046833266 -0.04170028 -0.0021447875 -0.03181851 0.008900447 0.042407032
0.0023306434 -0.036190357 0.0012554878 0.035107322 -0.05006736 -0.019757373 -0.07395484 0.007969352
0.043973535 0.07427387 -0.037885338 -0.12766005 0.060833905 0.19910395 -0.08037404 -0.15243606
-0.1360077 0.021390673 0.05837092 -0.16658786 -0.054469664 0.04185388 -0.08787766 -0.10621748
-0.04132509 -0.08558544 -0.11594925 -0.2629462 -0.01650078 -0.1735922 -0.12735179 -0.034580152
-0.09472899 -0.040264048 0.02761631 0.013391975 -0.09474743 -0.069486514 -0.07719966 0.13635905
00000000: 0245 99ba 20d0 8c3c 45a8 10bd 83bc 463c
00000010: ad95 b93c a7a4 863d 7322 3dbd 7636 343d
00000020: 0c1f 4f3d f456 f7bc c43b c03d 6f3f b9bc
00000030: f4f9 c9bb e547 c6bd c185 83bc 6e99 5cbc
00000040: 6225 36bd dea8 31bd 2306 f6bc 4240 563d
00000050: 7b90 0fbe b876 e9bc a2af e73b c842 923d
00000060: 63e1 e13d becc 623d e422 c9bc 6653 4ebd
00000070: 4c58 923c 113c 043e 7c7e 243d b0bd 7cbd
00000080: 5440 ad3c 50a8 583d cade c13b 63e7 31bc
00000090: f960 68bd 924a 093d 0e46 49bc b038 52bd
000000a0: 963e a43b a648 bbbd c8e4 48bd 79e2 37bd
000000b0: df9d 553d 35cd 07be de5d 5ebd 4ce2 f2bb
000000c0: b4a7 5b3c ea8f 093e 6952 36bc 3e4d 4fbc
000000d0: a8a7 ca3b 0ad1 a5bb 0520 ec3c 6fb5 553b
000000e0: 6097 18bd ac2c c9bb 73d1 f9bc 2c78 a73c
000000f0: 0db7 f0bc 1cc9 e43c cb3b a0bc 8af3 ebbb
00000100: df38 0b3d d760 103b 4345 7fbc 3f2d e0bc
00000110: a7f0 173c fcde d5bc 2bcc b43a 4396 f03c
00000120: a6ff 16bd 3c39 15ba 64d6 87bc 1326 6ebd
00000130: 7ee8 07bd eb25 933c eccb 423d 92be 373c
00000140: 85c9 c2bd f46b 86bd 5ff3 c0bc 84d9 c43c
00000150: 6603 ae3b 06f3 0ebd c94a 0a3c 60f3 20bd
00000160: 6aad 6abd 39f9 5f3b 4eb3 3abd b72a 2abd
00000170: 5bca ffbd f09e 92bd 46c7 a8bd 80e7 9d3c
00000180: 81be 713c 890d 0bbd e35a 23bd b429 f5bc
00000190: ef08 aabc 63f6 adbc 2486 86bd 1ef7 563d
000001a0: 08d5 a6bc f975 183d e7ca ebbc 99d1 9abd
000001b0: 8cc6 b93c 611b 953c 2255 1b3b 1391 56bd
000001c0: 4486 0fbd 88a9 023d d46d a13d 0041 2bbe
000001d0: 7145 97bd 0395 03be 943f cbbc 5013 503c
000001e0: 51bb 42be b333 5fbd e356 08bd 17bb 81bd
000001f0: d532 05bd 8c6b da3d 1b40 e83c 05ef ffbd
00000200: 82db 1f3d da8a b4bd 2591 073e eda8 0fbe
00000210: 59f2 9fbc 6132 3c3d 7695 bd3c 2e9b ba3d
00000220: 7dc0 70bd 8b80 bdbd a599 c93c 1c9c 5c3d
00000230: eb98 a1bd 5072 7f3c b905 ffbd 6b69 5fbd
00000240: 94cb c33d 273e 1ebe 180b 17bd 63dc 62bd
00000250: 5721 9abd f4c5 9abc 6819 90b9 901f 03bd
00000260: 400f 7aba babe db3a ad8a 10bd 450d 413c
00000270: ac60 b53c 6855 93bb 48c9 a9bc 062d 823b
00000280: f12b 243c a5a3 953c be78 dabc e650 ff3c
00000290: 8514 a53c 023e f1bc 59e1 883c b615 85bc
000002a0: 5feb ffbc 80cd 313d 6392 bf3c 1d01 913c
000002b0: 6b23 0c3b f2b5 f63c 9c0c c9bc 18b4 033d
000002c0: 0331 5abc 7fb4 85bd 7705 cdbc 671d 3e3d
000002d0: 9a84 a03d 40da b53d 16ec 1abd 16c3 d93c
000002e0: 68b1 663d f841 023e d38a b73c 6685 8abd
000002f0: caae 29bd 8f37 6cbc 0e9b 83bc 3024 463b
00000300: 3a4b c63c 9507 89bd 17cb 673d b599 cdbd
00000310: c0b4 10be a59a abbc 34b5 51bd 4515 903c
00000320: fe80 28bd dd95 93bc 212d bbbc bac1 2f3c
00000330: f5f3 443c 789d 163d 5164 593c 5fbe 96bc
00000340: eb97 e03c 09cb 453d 3dd4 3f3d eacd 2abd
00000350: 908f 0cbb 2054 02bd 2ed3 113c ffb2 2d3d
00000360: b5bd 183b 573c 14bd 2e8f a43a b2cc 0f3d
00000370: 6f13 4dbd 37da a1bc a375 97bd e391 023c
00000380: 981d 343d e61c 983d a82d 1bbd 51b9 02be
00000390: f92c 793d e8e1 4b3e 259b a4bd 3318 1cbe
000003a0: 9a45 0bbe 7e3b af3c 5916 6f3d 0296 2abe
000003b0: 951b 5fbd f96e 2b3d 34f9 b3bd 8d88 d9bd
000003c0: 7f44 29bd 6b47 afbd cd76 edbd e2a0 86be
000003d0: a52c 87bc 27c2 31be 8268 02be eba3 0dbd
000003e0: 4601 c2bd eaeb 24bd 9a3b e23c 046a 5b3c
000003f0: f10a c2bd f24e 8ebd db1a 9ebd b5a1 0b3e

conv2.bias f4 [26]
-0.18996488 -0.09250975 -0.13583781 -0.08088932 -0.1574295 -0.05956853 0.020890914 0.01605278
-0.09363029 -0.058219545 0.003999527 -0.1466373 -0.14214654 -0.059718363 -0.15060703 -0.21599914
0.02615213 -0.035958204 -0.31736255 -0.039788313 -0.066155806 -0.20870909 -0.085927 -0.1867859
0.13913606 -0.14394566
00000000: 2786 42be c075 bdbd 1119 0bbe 4da9 a5bd
00000010: 3335 21be 22fe 73bd 6c23 ab3c 1f81 833c
00000020: 3dc1 bfbd 9e77 6ebd 770e 833b 1728 16be
00000030: dd8e 11be 3e9b 74bd bb38 1abe e12e 5dbe
00000040: fe3c d63c e948 13bd 587d a2be 12f9 22bd
00000050: b27c 87bd d6b7 55be 7ffa afbd ce44 3fbe
00000060: af79 0e3e 7e66 13be

fc1.weight f4 [100, 650]
-0.045699503 0.056276128 0.06853948 -0.04215095 0.10755732 -0.04733355 0.026934164 0.023503268
0.07112951 0.06735338 0.24970995 -0.15742293 -0.06790485 0.010345371 0.05167493 0.1528707
-0.02635167 0.07845056 -0.0762314 -0.12511119 0.17339084 0.13181245 -0.0031881689 0.065244615
0.0026789224 -0.008581285 -0.018245049 0.10422032 0.053370457 -0.08079552 0.052117784 0.074141495
0.1172575 0.055607002 -0.08085656 -0.02310693 0.08560881 0.18375133 -0.061237544 -0.11211814
0.025330018 -0.10840181 -0.03194729 -0.10410921 0.029054288 -0.015032919 0.05856145 -0.018957727
-0.07760302 0.027592007 -0.032470573 0.11281127 0.10068491 -0.09191117 0.0055989865 -0.23146185
-0.00615907 0.042641368 0.20341313 0.091769874 -0.09263199 -0.02951968 0.0674451 -0.29069957
-0.08642227 -0.018884761 -0.12127542 0.060711198 -0.08194366 -0.13677402 0.01608342 0.009152521
-0.10097079 0.102387965 -0.021070573 -0.11876001 -0.10026812 0.0888544 -0.003560171 -0.0064519206
-0.035383448 0.09275344 -0.17371751 -0.151445 -0.034179933 0.038286924 0.04422846 0.15489855
0.073792115 0.06862212 0.08900045 -0.027944874 -0.0617246 0.012307251 0.017939026 0.022242041
0.002687533 -0.059013084 0.0850799 -0.12230442 0.040183183 -0.052322254 -0.010793631 -0.03136501
0.08964722 -0.054197434 -0.07009436 0.01187102 -0.17692846 0.03229313 0.020764321 -0.1520834
-0.035564244 0.092191406 0.02856389 -0.02349237 -0.025517508 -0.023213746 0.13895704 0.002889713
0.03165925 -0.042416394 -0.00796231 0.0022306147 0.016885124 0.04821994 0.03145838 -0.044050742
-0.007384064 0.03829795 -0.027739944 0.056332044 0.019297963 -5.5069027e-05 0.015648792 -0.037297115
0.03780382 -0.023608947 -0.038408276 0.039185014 -0.022517454 0.02419491 -0.013675283 0.00846801
0.023076165 0.044044744 0.010546472 -0.0101254005 -0.024148537 0.0055279667 -0.0032424382 -0.08938398
-0.041367777 -0.120537005 0.027982833 0.046216603 0.0069897952 -0.028329873 -0.083566666 -0.050982133
0.07986276 0.09758426 -0.0022783487 -0.019150205 -0.053923395 0.0053793425 0.03150529 0.031694014
0.0346098 0.0457632 0.03196461 8.509483e-05 -0.015331466 0.06496386 0.037374347 0.03413044
-0.01039647 0.005147152 0.038552456 -0.024862306 -0.058299296 -0.019363455 0.024096385 0.0030307956
0.03608644 -0.011319853 -0.025322791 0.029787276 -0.026273238 0.0067005437 -0.006593312 0.0332255
-0.025050258 -0.008932447 0.013564343 -0.020790204 0.02048193 0.01994193 0.037993565 0.010571766
0.07152704 -0.06072953 -0.06897935 -0.0640621 0.016120292 -0.13943341 -0.03459857 -0.06418797
-0.084438 0.038758196 0.13544331 -0.03446906 -0.08703636 -0.0066599473 0.1313925 0.085652806
0.088018745 0.076151446 -0.09161527 0.12732384 0.024440924 -0.062148098 -0.018143304 0.01767073
0.19003792 0.0041861623 -0.01835765 0.046973594 -0.01803014 0.02759906 -0.029831067 0.022446437
-0.016857257 -0.024469491 -0.0373663 -0.04149051 0.018094819 0.0043225293 0.02399417 0.0378779
0.019533275 -0.018034242 0.0009093872 -0.0056548854 0.009800416 -0.03333528 -0.033895556 0.02881979
-0.040562287 -0.014791833 0.014913796 -0.01474432 -0.011412089 -0.11679406 -0.03379159 0.031034231
00000000: 672f 3bbd cc81 663d 6d5e 8c3d 79a6 2cbd
00000010: 0347 dc3d d3e0 41bd 09a5 dc3c ed89 c03c
00000020: 59ac 913d 92f0 893d f7b3 7f3e 7a33 21be
00000030: b311 8bbd a27f 293c 17a9 533d 238a 1c3e
00000040: 75df d7bc b0aa a03d 351f 9cbd 261d 00be
00000050: 5e8d 313e d8f9 063e 99f0 50bb f89e 853d
00000060: dc90 2f3b 8598 0cbc a476 95bc 7771 d53d
00000070: fb9a 5a3d 1f78 a5bd 7579 553d 7fd7 973d
00000080: b324 f03d 2bc4 633d 2098 a5bd bf4a bdbc
00000090: ac53 af3d 4f29 3c3e 38d4 7abd 329e e5bd
000000a0: e680 cf3c c501 debd 29db 02bd 3637 d5bd
000000b0: 4203 ee3c a24c 76bc 22de 6f3d 3c4d 9bbc
000000c0: 55ee 9ebd a208 e23c ddff 04bd 9809 e73d
000000d0: e433 ce3d ec3b bcbd b477 b73b 5604 6dbe
000000e0: 06d2 c9bb b7a8 2e3d 884b 503e d8f1 bb3d
000000f0: d7b5 bdbd 42d3 f1bc a820 8a3d 93d6 94be
00000100: 29fe b0bd 37b4 9abc 3f5f f8bd 4eac 783d
00000110: 14d2 a7bd 7d0e 0cbe 60c1 833c 75f4 153c
00000120: c6c9 cebd c8b0 d13d 329c acbc 7338 f3bd
00000130: 5f59 cdbd 4cf9 b53d c251 69bb a26a d3bb
00000140: 3cee 10bd 84f5 bd3d 01e3 31be 6614 1bbe
00000150: 4200 0cbd c0d2 1c3d e728 353d ba9d 1e3e
00000160: 5220 973d c189 8c3d de45 b63d a6ec e4bc
00000170: efd2 7cbd 5aa4 493c ddf4 923c f134 b63c
00000180: 5221 303b b4b7 71bd 5f3e ae3d bd7a fabd
00000190: 1f97 243d dc4f 56bd c5d7 30bc 9978 00bd
000001a0: f698 b73d 21fe 5dbd a28d 8fbd ab7e 423c
000001b0: bc2c 35be cd45 043d f019 aa3c c0bb 1bbe
000001c0: d0ab 11bd d9ce bc3d d2fe e93c 1273 c0bc
000001d0: 180a d1bc c12a bebc c14a 0e3e 5761 3d3b
000001e0: 21ad 013d d0bc 2dbd 5974 02bc 812f 123b
000001f0: ac52 8a3c 4682 453d 81da 003d 8d6e 34bd
00000200: 05f6 f1bb 50de 1c3d e13e e3bc 6ebc 663d
00000210: c316 9e3c ebf9 66b8 e531 803c dcc4 18bd
00000220: 2ed8 1a3d 8d67 c1bc ff51 1dbd 7780 203d
00000230: 8676 b8bc 6734 c63c 4b0e 60bc 69bd 0a3c
00000240: 3a0a bd3c 4368 343d 1ccb 2c3c 02e5 25bc
00000250: 27d3 c5bc f223 b53b 167f 54bb f30e b7bd
00000260: 4271 29bd 1bdc f6bd 413c e53c 9f4d 3d3d
00000270: a70a e53b 0d14 e8bc 0025 abbd a4d2 50bd
00000280: 168f a33d 42da c73d 5950 15bb e4e0 9cbc
00000290: c7de 5cbd 3245 b03b b10b 013d 95d1 013d
000002a0: 01c3 0d3d 3172 3b3d 53ed 023d f074 b238
000002b0: d430 7bbc c60b 853d d815 193d 5ccc 0b3d
000002c0: f555 2abc 71a9 a83b 2ee9 1d3d 09ac cbbc
000002d0: 3ecb 6ebd 1ca0 9ebc c865 c53c 50a0 463b
000002e0: 60cf 133d e876 39bc be71 cfbc 7204 f43c
000002f0: f93a d7bc 3c90 db3b b60c d8bb 7617 083d
00000300: 3336 cdbc 6659 12bc fa3c 5e3c 3850 aabc
00000310: b8c9 a73c 425d a33c 249f 1b3d 3335 2d3c
00000320: c57c 923d 87bf 78bd 0c45 8dbd fe32 83bd
00000330: b40e 843c a2c7 0ebe 3bb7 0dbd fb74 83bd
00000340: d5ed acbd eac0 1e3d a7b1 0a3e 6e2f 0dbd
00000350: 1e40 b2bd b03b dabb c18b 063e bd6a af3d
00000360: 2c43 b43d 4af5 9b3d c9a0 bbbd 2e61 023e
00000370: 5538 c83c 018f 7ebd 44a1 94bc 35c2 903c
00000380: 4d99 423e 132c 893b c862 96bc 6267 403d
00000390: f2b3 93bc 6d17 e23c 4860 f4bc 97e1 b73c
000003a0: 3b18 8abc 3e74 c8bc 680d 19bd f4f1 29bd
000003b0: 963b 943c 01a4 8d3b 6c8f c43c db25 1b3d
000003c0: 3f04 a03c 8cbc 93bc f163 6e3a 9e4c b9bb
000003d0: ed91 203c 938a 08bd 11d6 0abd 7b17 ec3c
000003e0: a424 26bd 7259 72bc ff58 743c 2992 71bc
000003f0: c5f9 3abc b931 efbd 0d69 0abd 803b fe3c

fc1.bias f4 [100]
0.07572029 -0.0045779995 0.013641539 0.056471676 -0.053747974 -0.018464131 0.057315215 -0.01854567
0.038732946 0.034815907 -0.03278864 -0.018497147 0.027657371 -0.016082369 -0.02109336 -0.020143462
-0.0034514097 -0.0022657618 -0.004166493 0.048754614 0.04896275 -0.01987636 -0.043698862 0.035159722
0.0053247833 -0.013235368 0.097022064 0.037084617 -0.08008303 0.032619856 0.08719127 0.04200977
0.020285193 0.039094146 0.00989927 -0.027991328 0.025462506 0.015347379 -0.0071700634 -0.01727922
0.047475033 0.0909681 0.061494946 0.038664836 0.044761825 0.071217634 0.038017534 0.026476517
0.0605865 -0.00896536 -0.0294307 0.020746319 0.056774247 -0.030405803 0.027545068 0.11341269
0.037176717 -0.018381774 0.10032195 0.0046881996 -0.01080866 -0.009032554 -0.030504007 0.02300105
-0.08145103 -0.013255286 0.01116243 0.0038883225 -0.025096621 -0.025551379 -0.04575657 0.025472507
-0.022223497 0.063761435 -0.022752125 0.022826156 0.043884434 -0.0037692955 0.013821084 -0.03155406
-0.010540621 -0.011812566 0.0022232458 0.061724592 -0.008642387 -0.014927405 0.046707366 0.027476912
-0.044275332 0.062041767 -0.005397041 0.049729496 0.10489722 0.018365908 0.049359504 -0.025930686
-0.011066132 0.021413952 0.018182067 -0.034148075
00000000: 3d13 9b3d 0b03 96bb c380 5f3c d84e 673d
00000010: d626 5cbd 1742 97bc 5cc3 6a3d 17ed 97bc
00000020: 70a6 1e3d 209b 0e3d 624d 06bd 5487 97bc
00000030: b691 e23c 2cbf 83bc fbcb acbc e703 a5bc
00000040: 0c31 62bb 2d7d 14bb 1487 88bb ebb2 473d
00000050: 2a8d 483d c0d3 a2bc 94fd 32bd a403 103d
00000060: 857b ae3b 28d9 58bc 81b3 c63d 0ae6 173d
00000070: 9202 a4bd 669c 053d 5691 b23d 7012 2c3d
00000080: 222d a63c 2f21 203d 8c30 223c 124e e5bc
00000090: bf96 d03c 9373 7b3c daf2 eabb 278d 8dbc
000000a0: 2e75 423d 7c4d ba3d 20e2 7b3d 055f 1e3d
000000b0: 2d58 373d 8dda 913d 46b8 1b3d 48e5 d83c
000000c0: 8d29 783d 72e3 12bc a718 f1bc 2ff4 a93c
000000d0: 1d8c 683d 9715 f9bc 32a6 e13c ea44 e83d
000000e0: 9d46 183d 6095 96bc 9875 cd3d 789f 993b
000000f0: ce16 31bc 47fd 13bc 8ae3 f9bc b36c bc3c
00000100: cccf a6bd b32c 59bc a0e2 363c 3ad3 7e3b
00000110: 6e97 cdbc 2051 d1bc 3e6b 3bbd b8ab d03c
00000120: 0d0e b6bc 5b95 823d aa62 babc ebfd ba3c
00000130: 2ac0 333d 4906 77bb d471 623c d43e 01bd
00000140: 92b2 2cbc 7e89 41bc e0b3 113b edd2 7c3d
00000150: cc98 0dbc 1392 74bc 3950 3f3d 4317 e13c
00000160: 0d5a 35bd 821f 7e3d a9d9 b0bb 28b1 4b3d
00000170: 5bd4 d63d 1a74 963c 312d 4a3d 976c d4bc
00000180: b94e 35bc 506c af3c 8ff2 943c dade 0bbd

fc3.weight f4 [26, 100]
-0.23232529 0.05575895 0.18507817 -0.10047444 0.091355614 -0.07493344 0.15717559 0.34135142
-0.3006359 0.28015754 0.0059031434 -0.16384776 0.09936821 -0.09657527 0.049674466 -0.111206464
0.27879277 -0.009077382 -0.09257951 0.14471059 -0.03009284 -0.16822594 -0.060243838 -0.084622465
-0.15585099 -0.03959103 -0.20095176 0.37388074 0.017713746 0.0041916543 -0.06629582 0.038125712
0.17635283 -0.09410032 -0.12051623 0.104987666 0.24739885 0.10654124 0.1162305 -0.02403756
0.15944229 0.07484373 -0.1977839 0.3553478 0.30162054 -0.12971708 0.28443086 0.027956266
-0.03336132 -0.039874565 0.038004663 0.026083564 0.2750437 -0.0884071 0.25883672 0.19998418
0.026096774 -0.13703115 0.22371174 -0.054735277 0.3108057 0.15335676 0.010863213 0.06576086
-0.02482274 -0.03278366 -0.062379554 -0.09146497 0.37098995 -0.044023607 -0.045506325 -0.1295841
-0.14737453 -0.087365314 -0.20696658 -0.17479174 -0.20522827 0.022228697 -0.051241588 -0.17973278
-0.0132063795 0.024344923 -0.027982235 0.16167742 0.434524 0.11763092 -0.16029222 0.09883
-0.14075315 0.2338911 0.2455146 -0.016659211 0.25031757 -0.10955636 -0.17982565 -0.15052642
0.027852392 -0.12720405 0.26295486 -0.006835858 0.29977557 0.05175773 0.23889735 -0.21492106
-0.07671034 0.106387086 -0.18396899 -0.103857376 -0.19839399 0.09017106 0.13937248 0.14979604
0.37533712 0.31831095 -0.2072699 -0.13492967 -0.13677888 -0.008097608 0.2918361 -0.25636956
-0.029602854 0.018954169 -0.03662858 0.27229458 0.04693089 -0.12405435 -0.053839732 -0.10825224
-0.010507221 -0.024646137 -0.18378174 -0.1353549 -0.22291951 -0.27359703 0.21432453 0.317786
-0.21047726 -0.1392665 -0.032482803 -0.08660867 -0.24463 -0.09043554 -0.04677663 -0.25120348
-0.12296814 0.0930933 0.11020592 -0.10712996 0.26209736 -0.000771791 0.21881822 0.0023682583
-0.17354698 0.09734048 0.25684437 -0.18814184 -0.22081405 -0.16573828 -0.09018733 0.29373106
0.11052045 -0.036924727 -0.19340625 -0.024919849 0.29652336 0.07284898 0.06727634 0.20029454
-0.14637876 0.008730445 -0.11228233 0.21937005 -0.19062853 -0.34347785 0.0050279344 -0.14737289
0.2997186 0.37800398 -0.18363135 0.3350336 0.17641778 -0.124581404 -0.06098924 -0.27865705
0.07752791 0.023193581 -0.046307325 -0.20475365 0.49489695 -0.21800958 -0.017874865 -0.11434681
-0.13739477 -0.23984107 0.26803315 -0.0035753858 0.061464313 0.1832779 -0.17946875 0.2345353
-0.22862375 0.07201763 0.2868188 -0.16711348 0.0033315474 -0.25314838 0.30593196 -0.083561994
0.3432204 -0.0560973 -0.08044769 -0.2225548 -0.14799094 0.05727237 0.1988616 0.28928116
-0.19833036 0.13020545 -0.10184024 0.31792372 0.061767217 -0.09906559 -0.29543665 0.078781694
-0.1012122 -0.19828454 0.22639583 0.0058500646 0.30673355 0.090983 -0.17969948 -0.19707957
-0.0072016693 0.4801926 0.27556264 -0.19614281 -0.20983998 -0.06688222 0.023575034 0.051933087
-0.104666494 -0.28322092 -0.110084586 -0.025455765 -0.23047696 -0.077594616 -0.24109836 0.25538468
0.3082324 0.09685322 -0.034968525 0.40245295 -0.14119397 -0.13737085 -0.18663676 -0.103258036
00000000: aee6 6dbe 7f63 643d 2285 3d3e 8bc5 cdbd
00000010: a718 bb3d b476 99bd a3f2 203e 9dc5 ae3e
00000020: f3ec 99be cf70 8f3e 286f c13b b5c7 27be
00000030: 8f81 cb3d 41c9 c5bd 7477 4b3d 37c0 e3bd
00000040: edbd 8e3e 4db9 14bc 539a bdbd 032f 143e
00000050: 4285 f6bc 6c43 2cbe 3ec2 76bd 8b4e adbd
00000060: 6797 1fbe 342a 22bd 4cc6 4dbe 4c6d bf3e
00000070: 6b1c 913c 255a 893b 1ac6 87bd b529 1c3d
00000080: d695 343e abb7 c0bd 37d1 f6bd c603 d73d
00000090: 2056 7d3e 4b32 da3d 420a ee3d 6bea c4bc
000000a0: d744 233e ab47 993d dd87 4abe 26f0 b53e
000000b0: 026e 9a3e 8ed4 04be eca0 913e 8a04 e53c
000000c0: e1a5 08bd 8353 23bd c7aa 1b3d 33ad d53c
000000d0: 87d2 8c3e c80e b5bd 3f86 843e a7c8 4c3e
000000e0: e7c8 d53c e551 0cbe b114 653e 1932 60bd
000000f0: ed21 9f3e 8e09 1d3e 9efb 313c a1ad 863d
00000100: 0f59 cbbc 2948 06bd b481 7fbd fc51 bbbd
00000110: 65f2 bd3e 1952 34bd d764 3abd b2b1 04be
00000120: 59e9 16be 96ec b2bd 0cef 53be 9bfc 32be
00000130: 5c27 52be f518 b63c b3e2 51bd df0b 38be
00000140: 925f 58bc 016f c73c 003b e5bc c48e 253e
00000150: ee79 de3e 7be8 f03d a523 24be 6267 ca3d
00000160: 9821 10be 2681 6f3e 2e68 7b3e e678 88bc
00000170: a029 803e 165f e0bd 3724 38be 9923 1abe
00000180: b32a e43c c741 02be 05a2 863e 55ff dfbb
00000190: 2f7c 993e eaff 533d 82a1 743e 4414 5cbe
000001a0: 501a 9dbd 79e1 d93d 5e62 3cbe 2db3 d4bd
000001b0: cb27 4bbe 9bab b83d a9b7 0e3e 2264 193e
000001c0: 302c c03e a7f9 a23e 903e 54be 012b 0abe
000001d0: c30f 0cbe d4ab 04bc 8b6b 953e df42 83be
000001e0: af81 f2bc c645 9b3c da07 16bd 326a 8b3e
000001f0: 9b3a 403d 3510 febd 0d87 5cbd 5ab3 ddbd
00000200: 7b26 2cbc b2e6 c9bc 4831 3cbe 7a9a 0abe
00000210: 0345 64be e914 8cbe e477 5b3e d9b4 a23e
00000220: 5a87 57be e19b 0ebe b00c 05bd e35f b1bd
00000230: 4980 7abe 4536 b9bd da98 3fbd be9d 80be
00000240: b8d6 fbbd b3a7 be3d a4b3 e13d f466 dbbd
00000250: a031 863e 0452 4aba e211 603e c834 1b3b
00000260: 4db6 31be 725a c73d 1b81 833e 41a8 40be
00000270: 141d 62be 4cb7 29be 23b4 b8bd eb63 963e
00000280: 8c58 e23d 623e 17bd 4a0c 46be b624 ccbc
00000290: e9d1 973e d931 953d 2ec8 893d 031a 4d3e
000002a0: 50e4 15be 240a 0f3c 47f4 e5bd 8ba2 603e
000002b0: 2034 43be 54dc afbe 5fc1 a43b ebe8 16be
000002c0: b774 993e bd89 c13e db09 3cbe 8689 ab3e
000002d0: dda6 343e 8924 ffbd dacf 79bd 23ac 8ebe
000002e0: f4c6 9e3d 7700 be3c c0ac 3dbd f1aa 51be
000002f0: 2263 fd3e e73d 5fbe 4f6e 92bc a92e eabd
00000300: 37b1 0cbe e698 75be a43b 893e 0551 6abb
00000310: 01c2 7b3d 34ad 3b3e a8c6 37be 062a 703e
00000320: 581c 6abe fb7d 933d ead9 923e cc1f 2bbe
00000330: 1756 5a3b aa9c 81be 1da3 9c3e 8d22 abbd
00000340: 96ba af3e 48c6 65bd c2c1 a4bd 68e5 63be
00000350: f08a 17be 6f96 6a3d 60a2 4b3e a91c 943e
00000360: 1d17 4bbe 9454 053e 9e91 d0bd e6c6 a23e
00000370: 9fff 7c3d e6e2 cabd 7943 97be 4c58 a13d
00000380: 5848 cfbd 1a0b 4bbe 4fd4 673e e6b1 bf3b
00000390: 2e0c 9d3e 4c55 ba3d 2403 38be 3acf 49be
000003a0: fbfb ebbb cedb f53e 8c16 8d3e a9d9 48be
000003b0: 4be0 56be 8cf9 88bd 6e20 c13c cab7 543d
000003c0: 635b d6bd 5502 91be 0774 e1bd 9c88 d0bc
000003d0: 2702 6cbe ede9 9ebd 7de2 76be c8c1 823e
000003e0: a3d0 9d3e fb5a c63d 283b 0fbd 500e ce3e
000003f0: 2795 10be f2aa 0cbe b51d 3fbe f378 d3bd

fc3.bias f4 [26]
0.130086 -0.014093064 0.07049224 -0.124236666 -0.09754354 0.11158805 0.09675987 -0.100809574
-0.0018832339 -0.19852917 -0.036784634 0.13371916 0.15031256 0.11988687 -0.35343638 0.052493133
-0.07146812 0.048574906 0.025610676 0.11595753 0.011105997 0.12105625 0.03371795 -0.07165952
-0.057507295 -0.09311381
00000000: 4435 053e 98e6 66bc 3c5e 903d cb6f febd
00000010: e8c4 c7bd 4788 e43d 0a2a c63d 4075 cebd
00000020: d8d6 f6ba 3b4b 4bbe 7cab 16bd aded 083e
00000030: 89eb 193e 3f87 f53d 9df5 b4be 0a03 573d
00000040: e15d 92bd 7bf6 463d 7bcd d13c 247b ed3d
00000050: edf5 353c 57ec f73d d51b 0a3d 3ac2 92bd
00000060: c58c 6bbd 74b2 bebd
